…
WARNING:tensorflow:From /home/kevin/miniconda3/envs/research/lib/python3.6/site-packages/tensorflow/contrib/learn/python/learn/datasets/base.py:198: retry (from tensorflow.contrib.learn.python.learn.datasets.base) is deprecated and will be removed in a future version.
Instructions for updating:
Use the retry module or similar alternatives.
Data loaded from data/amazon_review_samples/samples_train_50.csv
Data loaded from data/amazon_review_samples/samples_test_50.csv
char_cnn_zhang
zhang
CharCNNZhang model built: 
_________________________________________________________________
Layer (type)                 Output Shape              Param #   
=================================================================
sent_input (InputLayer)      (None, 1014)              0         
_________________________________________________________________
embedding_1 (Embedding)      (None, 1014, 128)         10112     
_________________________________________________________________
conv1d_1 (Conv1D)            (None, 1008, 256)         229632    
_________________________________________________________________
thresholded_re_lu_1 (Thresho (None, 1008, 256)         0         
_________________________________________________________________
max_pooling1d_1 (MaxPooling1 (None, 336, 256)          0         
_________________________________________________________________
conv1d_2 (Conv1D)            (None, 330, 256)          459008    
_________________________________________________________________
thresholded_re_lu_2 (Thresho (None, 330, 256)          0         
_________________________________________________________________
max_pooling1d_2 (MaxPooling1 (None, 110, 256)          0         
_________________________________________________________________
conv1d_3 (Conv1D)            (None, 108, 256)          196864    
_________________________________________________________________
thresholded_re_lu_3 (Thresho (None, 108, 256)          0         
_________________________________________________________________
conv1d_4 (Conv1D)            (None, 106, 256)          196864    
_________________________________________________________________
thresholded_re_lu_4 (Thresho (None, 106, 256)          0         
_________________________________________________________________
conv1d_5 (Conv1D)            (None, 104, 256)          196864    
_________________________________________________________________
thresholded_re_lu_5 (Thresho (None, 104, 256)          0         
_________________________________________________________________
conv1d_6 (Conv1D)            (None, 102, 256)          196864    
_________________________________________________________________
thresholded_re_lu_6 (Thresho (None, 102, 256)          0         
_________________________________________________________________
max_pooling1d_3 (MaxPooling1 (None, 34, 256)           0         
_________________________________________________________________
flatten_1 (Flatten)          (None, 8704)              0         
_________________________________________________________________
dense_1 (Dense)              (None, 1024)              8913920   
_________________________________________________________________
thresholded_re_lu_7 (Thresho (None, 1024)              0         
_________________________________________________________________
dropout_1 (Dropout)          (None, 1024)              0         
_________________________________________________________________
dense_2 (Dense)              (None, 1024)              1049600   
_________________________________________________________________
thresholded_re_lu_8 (Thresho (None, 1024)              0         
_________________________________________________________________
dropout_2 (Dropout)          (None, 1024)              0         
_________________________________________________________________
dense_3 (Dense)              (None, 2)                 2050      
=================================================================
Total params: 11,451,778
Trainable params: 11,451,778
Non-trainable params: 0
_________________________________________________________________
Training CharCNNZhang model: 
Train on 180000 samples, validate on 20000 samples
Epoch 1/10
 - 101s - loss: 7.1974e-04 - val_loss: 8.0252
Epoch 2/10
 - 95s - loss: 1.1921e-07 - val_loss: 8.0252
…
